hashtag-trend-lstm/models/best_lstm.pt (torch, 209893 bytes, 10 tensors)

lstm.weight_ih_l0 f4 [256, 4]
-0.0700407 0.23123494 0.5912322 0.28016073 0.18016465 -0.097898714 -0.10965826 -0.042288564
0.06298843 -0.03101407 -0.18363991 -0.6004305 -0.43193707 -0.0387256 -0.23380189 -0.16143188
0.175008 0.35313645 0.072463065 -0.11145452 0.37481555 0.059478253 0.20135021 -0.19841753
0.6108894 0.5566099 0.6927732 0.75283825 -0.23247488 -0.17084648 -0.5458525 -0.2278821
-0.07269338 0.0036099916 0.070443876 0.05303693 0.17933244 -0.13738027 -0.10189559 0.38848144
0.9308003 1.0804101 0.44285932 0.06324693 -0.27222863 0.028282018 0.042892467 0.9809969
-0.6039316 -0.062510595 0.22706552 0.3387208 -0.009863316 0.024996782 -0.17684911 -0.65296847
-0.44934335 -0.117937386 -0.5942481 -0.47529668 0.4629789 0.101002574 -0.0893972 0.12854135
0.009827177 -0.003825091 -0.59215546 0.009188969 -0.09085456 -0.31734765 -0.43487382 -0.20514898
0.15123665 0.4541641 0.42030627 0.17202476 0.19726752 0.09781455 0.19098836 -0.31337443
0.086360835 0.21794268 0.7482 0.43770725 0.31298512 0.027292024 0.25379753 0.4378559
0.36627617 0.22424416 -0.2659028 -0.21334098 0.3800013 0.08692628 -0.607438 -0.35012528
-0.48057458 -0.0888909 -0.043078125 -0.38255045 0.15068026 0.3628565 0.20829879 0.19046016
0.26137128 0.007453566 0.25057307 -0.040308606 0.08424654 0.019566251 0.25900483 0.046169844
0.4410656 0.469822 0.31420305 0.2660065 -0.11890983 0.39360106 0.13732 0.74544394
0.7748944 0.80544233 0.9986996 0.2562176 0.08722189 0.52487 0.49850884 0.2938123
0.9762164 0.3767881 0.15966125 0.2219553 -0.15547128 0.00328171 0.50362504 -0.04182567
-0.45566162 -0.36166355 -0.61512166 -0.58566207 0.4231051 0.076276034 0.45907477 0.82910866
0.26408568 -0.07178392 -0.3838489 -0.53036577 0.21682227 -0.037434645 0.5491962 0.2718602
0.128571 0.32094756 0.24597794 -0.24042669 0.16091605 0.41557002 0.36312735 -0.36100596
-0.56806004 -0.20342243 -0.27645114 -0.61650604 0.1843991 -0.042400602 0.25019988 -0.2975121
0.2195772 0.12776046 0.20083864 -0.05272065 0.31952837 0.05490343 0.3665448 0.13312665
-0.058389198 0.14720142 0.0065348707 -0.04765262 0.19354151 0.0853799 0.03185421 -0.3790191
1.4169469 1.7440741 1.1033581 -0.09039675 0.19556047 0.13188037 0.2765153 -0.20601778
-0.031257477 0.056229167 -0.045427945 0.052051857 -0.41057584 -0.27616674 -0.48543674 -0.37905958
0.20029941 0.4955505 0.1894746 0.028147725 0.25343195 0.50001067 0.16852115 0.20533915
0.690182 0.6535025 0.3694455 0.050952256 -0.36155927 -0.4723565 -0.4993819 0.07647946
0.1415938 0.05115148 -0.26094732 -0.32153347 -0.3641291 -0.22502947 -0.2865069 0.1477942
1.0103153 0.57346857 0.66226083 0.5299604 -0.33624363 -0.2973531 -0.38218132 -0.017225087
0.16701417 0.025153184 0.23908386 0.16022117 -0.079216436 0.15383802 0.26303557 -0.12836535
-0.36684364 0.05657924 -0.08496668 -0.22635315 0.041441444 0.095742576 -0.41779584 -0.6398131
0.15843287 -0.010740736 -0.2165665 -0.017877823 0.124298155 0.41467884 0.050688222 0.24990392
00000000: 8071 8fbd dac8 6c3e fe5a 173f 3a71 8f3e
00000010: 157d 383e 1f7f c8bd 8394 e0bd c636 2dbd
00000020: 1400 813d 3811 febc 1a0c 3cbe d0b5 19bf
00000030: db26 ddbe bc9e 1ebd c369 6fbe 664e 25be
00000040: 4c35 333e 4dce b43e 8467 943d 4442 e4bd
00000050: d3e7 bf3e 789f 733d c02e 4e3e f72d 4bbe
00000060: 3f63 1c3f fd7d 0e3f 9659 313f 02ba 403f
00000070: e50d 6ebe 61f2 2ebe fdbc 0bbf ed59 69be
00000080: 44e0 94bd 9c95 6c3b e144 903d 403d 593d
00000090: eca2 373e 6aad 0cbe a3ae d0bd 0ae7 c63e
000000a0: ee48 6e3f e14a 8a3f 75be e23e 9b87 813d
000000b0: 8d61 8bbe b1af e73c 03b0 2f3d 9d22 7b3f
000000c0: 439b 1abf 8e05 80bd dd83 683e d06c ad3e
000000d0: bf99 21bc 0dc6 cc3c ef17 35be f128 27bf
000000e0: 5510 e6be 2889 f1bd a520 18bf 165a f3be
000000f0: 920b ed3e 70da ce3d e115 b7bd 58a0 033e
00000100: 2b02 213c 61ae 7abb 8097 17bf 548d 163c
00000110: f511 babd 647b a2be c8a7 debe 9312 52be
00000120: c8dd 1a3e 3288 e83e 6232 d73e 4227 303e
00000130: 7f00 4a3e ff52 c83d 7492 433e 9d72 a0be
00000140: f3dd b03d 5e2c 5f3e 098a 3f3f 2a1b e03e
00000150: 963f a03e 8693 df3c c0f1 813e a62e e03e
00000160: 8d88 bb3e 43a0 653e 6924 88be 0f76 5abe
00000170: 888f c23e 6806 b23d 0f81 1bbf 9f43 b3be
00000180: df0d f6be 6f0c b6bd b072 30bd a7dd c3be
00000190: ed4b 1a3e 54c8 b93e 474c 553e fd07 433e
000001a0: 75d2 853e 0b3d f43b 1d4b 803e a31a 25bd
000001b0: 7389 ac3d 6749 a03c 489c 843e 971c 3d3d
000001c0: 5ad3 e13e 828c f03e 39df a03e 0132 883e
000001d0: ff86 f3bd 1486 c93e 9d9d 0c3e 6ad5 3e3f
000001e0: 7b5f 463f 7831 4e3f c7aa 7f3f f42e 833e
000001f0: 64a1 b23d e15d 063f 8d3c ff3e 916e 963e
00000200: 51e9 793f 5fea c03e 3d7e 233e 4048 633e
00000210: dd33 1fbe f511 573b 92ed 003f 6551 2bbd
00000220: 7b4c e9be f72b b9be 9d78 1dbf f3ed 15bf
00000230: 3ba1 d83e 9c36 9c3d d90b eb3e 7740 543f
00000240: 3d36 873e 7303 93bd d887 c4be 0dc6 07bf
00000250: a806 5e3e 1255 19bd 1f98 0c3f 4331 8b3e
00000260: 1ea8 033e 3d53 a43e a4e1 7b3e 6a32 76be
00000270: 2dc7 243e 98c5 d43e d4eb b93e c6d5 b8be
00000280: 626c 11bf f84d 50be 018b 8dbe 57d3 1dbf
00000290: 1ed3 3c3e 41ac 2dbd 331a 803e 8253 98be
000002a0: d8d8 603e a3d3 023e a5a8 4d3e 9cf1 57bd
000002b0: 3999 a33e 6be2 603d c3ab bb3e 5a52 083e
000002c0: 8329 6fbd f8bb 163e 7822 d63b 652f 43bd
000002d0: bf2f 463e a8db ae3d 8f79 023d cb0e c2be
000002e0: 845e b53f d23d df3f d73a 8d3f ee21 b9bd
000002f0: 0141 483e a60b 073e 6a93 8d3e 53f6 52be
00000300: d707 00bd 8e50 663d a712 3abd 5434 553d
00000310: ff36 d2be ba65 8dbe 2a8b f8be 1914 c2be
00000320: 4a1b 4d3e ccb8 fd3e a105 423e 0f96 e63c
00000330: d5c1 813e b300 003f cf90 2c3e 6d44 523e
00000340: c4af 303f f14b 273f f627 bd3e 50b3 503d
00000350: 4c1e b9be b6d8 f1be fcae ffbe 43a1 9c3d
00000360: f7fd 103e 3784 513d e39a 85be 09a0 a4be
00000370: 216f babe 206e 66be 08b1 92be 5d57 173e
00000380: 0352 813f d6ce 123f ed89 293f 7cab 073f
00000390: 2028 acbe aa3e 98be 45ad c3be a01b 8dbc
000003a0: c305 2b3e 0d0e ce3c 66d2 743e 0511 243e
000003b0: 3a3c a2bd b787 1d3e 99ac 863e 3572 03be
000003c0: eed2 bbbe a2bf 673d 0303 aebd 1fc9 67be
000003d0: 81be 293d af14 c43d 56e9 d5be cbca 23bf
000003e0: 3a3c 223e e9f9 2fbc 9cc3 5dbe 8374 92bc
000003f0: 0890 fe3d c950 d43e 749e 4f3d d0e6 7f3e

lstm.weight_hh_l0 f4 [256, 64]
-0.4031053 -0.21746466 0.13264102 -0.14137658 -0.15074505 0.019110147 -0.48114908 -0.25489604
0.08129078 -0.17429326 0.1152908 -0.1767529 0.33901715 0.49872962 -0.56739134 0.57920295
0.13689227 0.39162564 -1.0471133 0.6764284 1.1911025 0.22296385 -0.41211328 -0.27930385
-0.36385697 0.5428569 -0.13947468 -0.5147886 0.49790695 -0.406342 -0.6146949 -0.18430002
0.81016976 0.20886482 0.7797859 -0.22695939 0.25209236 0.9603565 -0.66097164 -0.247261
0.22653948 0.3222494 0.4065364 0.111264125 0.70272285 0.11677291 0.65850586 -0.1042201
-0.51442933 -0.6866199 -0.35370788 -0.28824002 -0.3663711 -0.29334188 0.17586182 0.22479029
0.026614796 -0.14667696 0.60823524 -0.5230199 -0.92113054 -0.45232597 -0.40848574 0.90872145
0.14257051 -0.3018662 -0.22176686 0.4482279 -0.015826618 0.16854686 -0.11045231 0.74340045
-0.10685976 -0.14781766 0.040177505 0.26066634 0.3169873 0.07268743 -0.2748101 -0.03686122
0.10940644 -0.20911056 -0.17497113 0.18528756 0.0409761 0.087527 -0.041928433 0.3161448
0.28934163 -0.098018445 0.16869177 -0.08836421 -0.28773165 0.2674484 0.13482977 0.044488493
0.17712337 -0.052046996 0.34902784 0.19981928 -0.028313745 -0.28168678 -0.36288258 -0.35732648
-0.021042846 -0.17981133 0.2738902 0.23815261 0.23200913 0.1165606 0.4079262 0.5282758
0.1391157 -0.028657272 0.22831985 0.1353324 0.14770642 0.25564146 0.004169144 -0.32428163
0.39946553 0.39635378 -0.05783083 0.33051527 -0.28529665 0.27822646 0.35222384 -0.5333455
-0.013139242 0.038680404 -0.6696904 0.053043522 -0.104285024 -0.10994481 0.17493525 0.46648434
0.097645655 -0.701098 -0.53580886 -0.03219072 0.38850674 0.43763667 -0.19867808 0.42935085
0.2614881 0.07401267 0.030325113 -0.17149994 0.06740571 0.22772126 0.56118506 0.10371867
-0.5883065 0.5453929 0.19024524 -0.06555387 0.06422857 -0.07632833 0.09192495 0.083111495
0.20994426 0.1834564 0.33411992 0.030030835 -0.27482688 -0.27199855 -0.46548495 -0.14097556
-0.61811167 -0.4248124 0.23117039 0.005181615 0.09081363 -0.18564731 -0.090895966 0.2015315
-0.1313713 -0.021518717 0.37286696 -0.30937603 -0.23882152 0.08208009 -0.5137152 -0.056700222
0.6139053 0.12679185 0.33292687 0.15485543 -0.29493007 0.026666502 0.04643536 0.3306335
-0.647131 0.26892188 0.10958179 -0.71796036 0.13244401 0.66727287 -0.2524172 -0.4885074
0.9325145 -0.04968011 -0.3913531 0.2797183 0.39876747 0.7550611 -0.47392493 0.60138625
-0.19350414 0.40206438 -0.2858481 0.6791182 0.06278445 0.5897774 -0.34774783 -0.67349327
-0.25233278 0.56961507 0.16540958 -0.3929928 0.8772887 -0.8043086 -0.34641874 -0.2743315
-0.08285383 0.10586574 0.24719426 -0.20141268 0.10220798 0.28013226 -0.7589227 -0.10530193
-0.06901395 0.23302573 0.72023165 0.28273797 0.58622026 0.1175371 0.805468 -0.19976966
-0.31891674 -0.52594167 -0.26377147 -0.51079875 -0.15277478 0.17145674 0.6103163 0.7229317
-0.2267456 -0.5785352 -0.03738107 0.16926919 -0.13645698 -0.91600835 -0.1408026 0.6378633
00000000: d163 cebe 0eaf 5ebe 0cd3 073e 06c5 10be
00000010: e95c 1abe e28c 9c3c 2c59 f6be bc81 82be
00000020: c87b a63d ef79 32be 951d ec3d b6fe 34be
00000030: a893 ad3e 7d59 ff3e 8f40 11bf a546 143f
00000040: 7d2d 0c3e 2883 c83e cf07 86bf 692a 2d3f
00000050: 0c76 983f a350 643e 8300 d3be ea00 8fbe
00000060: 764b babe abf8 0a3f 73d2 0ebe 30c9 03bf
00000070: a9ed fe3e 0f0c d0be a55c 1dbf 25b9 3cbe
00000080: 4967 4f3f a9e0 553e 0ca0 473f 0b68 68be
00000090: 4012 813e ecd9 753f 7035 29bf fd31 7dbe
000000a0: f7f9 673e e0fd a43e 8a25 d03e 72de e33d
000000b0: a5e5 333f a326 ef3d d793 283f 5971 d5bd
000000c0: a4b1 03bf 52c6 2fbf 3319 b5be 3294 93be
000000d0: fe94 bbbe e830 96be 1f15 343e 6d2f 663e
000000e0: 4607 da3c 7c32 16be 4eb5 1b3f a2e4 05bf
000000f0: 36cf 6bbf 4597 e7be 0b25 d1be f8a1 683f
00000100: 01fe 113e 358e 9abe da16 63be 217e e53e
00000110: d3a6 81bc 8c97 2c3e d234 e2bd 7e4f 3e3f
00000120: 4ad9 dabd 835d 17be 2b91 243d 0f76 853e
00000130: 294c a23e 26dd 943d e9b3 8cbe cafb 16bd
00000140: 7c10 e03d 1421 56be a22b 33be 06bc 3d3e
00000150: 8ed6 273d 5b41 b33d 26bd 2bbd bbdd a13e
00000160: 9624 943e e5bd c8bd 89bd 2c3e 4cf8 b4bd
00000170: 9051 93be ffee 883e d110 0a3e 9139 363d
00000180: d45f 353e 3b2f 55bd c7b3 b23e 6d9d 4c3e
00000190: 3af2 e7bc 4039 90be bfcb b9be 7ff3 b6be
000001a0: 0c62 acbc 7620 38be 563b 8c3e 47de 733e
000001b0: cd93 6d3e 53b7 ee3d b4db d03e 153d 073f
000001c0: 5974 0e3e a8c2 eabc aecc 693e 9494 0a3e
000001d0: 5a40 173e 70e3 823e 519d 883b 3e08 a6be
000001e0: bf86 cc3e e2ee ca3e 05e0 6cbd 4c39 a93e
000001f0: 6712 92be b373 8e3e af56 b43e 5589 08bf
00000200: fa45 57bc 586f 1e3d d470 2bbf 2a44 593d
00000210: 6393 d5bd bf2a e1bd 3a22 333e 09d7 ee3e
00000220: 72fa c73d 297b 33bf c52a 09bf 6bda 03bd
00000230: 5bea c63e ea11 e03e 4472 4bbe e0d3 db3e
00000240: c5e1 853e f493 973d 5f6c f83c ae9d 2fbe
00000250: 010c 8a3d c32f 693e d3a9 0f3f 746a d43d
00000260: 419b 16bf de9e 0b3f a6cf 423e 1b41 86bd
00000270: 458a 833d 0752 9cbd 2643 bc3d 5c36 aa3d
00000280: a1fb 563e ffdb 3b3e c411 ab3e 3a03 f63c
00000290: 1cb6 8cbe 6543 8bbe 0b54 eebe e65b 10be
000002a0: 913c 1ebf 0381 d9be eeb7 6c3e 89ca a93b
000002b0: 7ffc b93d 541a 3ebe aa27 babd 465e 4e3e
000002c0: 3386 06be 0548 b0bc 6be8 be3e 8966 9ebe
000002d0: a18d 74be 9b19 a83d d782 03bf 7e3e 68bd
000002e0: e628 1d3f b9d5 013e 6475 aa3e 6c92 1e3e
000002f0: 1301 97be b573 da3c 0133 3e3d cb48 a93e
00000300: 61aa 25bf 21b0 893e 6b6c e03d 40cc 37bf
00000310: 679f 073e 65d2 2a3f d43c 81be a41d fabe
00000320: 45b9 6e3f 5f7d 4bbd 6f5f c8be 3d37 8f3e
00000330: 402b cc3e af4b 413f 4aa6 f2be 73f4 193f
00000340: f325 46be 62db cd3e af5a 92be b1da 2d3f
00000350: 2295 803d a7fb 163f 010c b2be 0e6a 2cbf
00000360: c331 81be 4bd2 113f 2161 293e 5a36 c9be
00000370: fe95 603f 2be7 4dbf cc5d b1be 2e75 8cbe
00000380: 45af a9bd 23d0 d83d 7e20 7d3e 203f 4ebe
00000390: 6b52 d13d 7f6d 8f3e c248 42bf 8aa8 d7bd
000003a0: 3057 8dbd 4c9e 6e3e 1a61 383f 08c3 903e
000003b0: 8812 163f 4bb7 f03d 2733 4e3f 6b90 4cbe
000003c0: 0e49 a3be 1da4 06bf 0e0d 87be b5c3 02bf
000003d0: fe70 1cbe 5b92 2f3e b03d 1c3f 0d12 393f
000003e0: 0030 68be e21a 14bf e51c 19bd e754 2d3e
000003f0: 61bb 0bbe 867f 6abf 8f2e 10be 024b 233f

lstm.bias_ih_l0 f4 [256]
0.42043602 -0.3114754 0.55931365 0.50391597 0.45325363 -0.35034582 0.10102362 0.5859035
0.7608493 0.30830458 -0.13814603 1.1804417 -0.11099275 0.22266355 1.2039493 0.17994104
-0.22669137 0.5194931 0.0794977 1.6747073 -0.22504283 0.0383481 0.18376271 0.44884333
0.354568 -0.25235152 0.3260902 0.12916644 0.5344966 0.10923232 0.4568335 0.217632
-0.6382018 -0.09019746 0.9574373 -0.19685449 0.12701711 0.069263026 0.5894944 0.2630096
0.52024657 0.37572882 -0.09102014 0.051747523 0.09294096 0.12294318 0.30766466 0.9961756
-0.18299851 0.2064586 0.42937168 0.24564219 0.7344627 0.23204526 -0.008680765 0.5220749
1.3267989 1.1942359 0.23602156 -0.22471556 -0.063318424 0.46547022 -0.022685325 -0.007033356
0.007874389 -0.19462557 -0.40335298 -0.08088351 -0.27285686 -0.40264016 -0.09378523 0.10753708
0.3012833 0.14503652 -0.4389552 0.08803633 -0.0069774175 0.3016827 0.9773846 -0.056863043
-0.5396558 -0.03305864 -0.18977037 0.69527054 -0.05504954 -0.32784843 0.20229608 0.6356249
0.45122385 0.39403298 -0.28466174 0.27635303 0.3538639 0.18275811 0.03891144 -0.14975709
-0.13017187 -0.076834716 0.7418789 -0.38934818 0.07590218 -0.38773182 0.4064247 -0.1588201
0.0185905 0.21218307 0.18003094 0.332178 -0.05421182 0.43427524 0.7580154 0.039856836
-0.7299659 -0.32942247 -0.0010485607 -0.24624044 -0.05156103 0.034624 -0.02868493 0.09239981
-0.27805236 0.3079326 0.32120886 -0.5089375 -0.009184602 0.5763171 0.031059124 -0.4896524
-0.37640375 -0.06575059 0.12740378 -0.23963122 -0.4792877 0.316535 -0.34289354 -0.6857014
0.43331888 0.29564255 -0.039027017 -0.75746393 0.20165041 0.35008904 -1.1893419 0.3779366
-0.062200226 0.64456856 -0.12043145 1.6080191 -0.18649377 0.03798201 -0.24689527 -0.15610537
-0.1820365 0.020473257 0.057685297 0.0004577267 0.10998069 -0.24356882 -0.9390094 -0.5278353
-0.29009026 -0.052442722 0.9362311 -0.031380277 0.044391718 0.28323376 -0.5826914 0.12788467
0.13334166 0.6834211 -0.13883786 0.41497326 -0.15690224 -0.16556346 0.42060658 -0.76962197
0.12417083 -0.19982283 -0.2231943 0.120758064 0.096257545 0.037306145 0.13425376 0.47149122
-1.0457298 -0.74117935 0.14390904 -0.08094913 -0.041498546 -0.15006813 -0.128201 0.15559688
0.12490156 0.11473306 0.61345327 0.29130426 0.8161827 -0.43804955 0.035223402 0.88039744
0.5398424 1.166196 0.30120713 1.1260034 -0.23496757 0.120338686 1.2884 -0.7187238
-0.36864173 0.07413246 -0.099693105 1.352375 -0.35812077 0.025568856 0.22720762 0.21781902
0.78885525 -0.050475925 0.41003704 0.04283623 0.11134753 -0.051280767 0.43407303 -0.18143931
-0.37226108 -0.030866409 0.83210105 -0.031991795 -0.099905714 -0.15205924 0.49771094 0.16958188
0.5887542 0.37826285 -0.24095409 0.39803317 -0.0848306 0.49702674 0.9596587 0.8795928
-0.015674029 0.28988755 0.45237398 0.55276513 0.22700053 0.44787395 0.37402642 -0.1319717
1.5616443 0.58436173 -0.025125606 0.025932407 0.1184851 0.51820594 -0.3238912 0.21867256
00000000: 6443 d73e b479 9fbe 2e2f 0f3f a300 013f
00000010: dc10 e83e 8760 b3be 79e5 ce3d c6fd 153f
00000020: 05c7 423f 19da 9d3e 2776 0dbe b718 973f
00000030: 2b50 e3bd ea01 643e 031b 9a3f 7742 383e
00000040: c821 68be 80fd 043f b1cf a23d cf5c d63f
00000050: a171 66be e612 1d3d 4b2c 3c3e cbce e53e
00000060: f089 b53e 3834 81be 4bf5 a63e 3544 043e
00000070: c5d4 083f 32b5 df3d 15e6 e93e ecda 5e3e
00000080: 3161 23bf 72b9 b8bd 9c1a 753f 3994 49be
00000090: c610 023e c6d9 8d3d 1be9 163f 32a9 863e
000000a0: e12e 053f 875f c03e c468 babd 36f5 533d
000000b0: d457 be3d a2c9 fb3d 3986 9d3e 5d05 7f3f
000000c0: f663 3bbe e269 533e 9bd6 db3e a089 7b3e
000000d0: bf05 3c3f 469d 6d3e c439 0ebc b3a6 053f
000000e0: 8cd4 a93f b9dc 983f a3af 713e d61b 66be
000000f0: 17ad 81bd 1d52 ee3e 93d6 b9bc 1178 e6bb
00000100: 9503 013c ed4b 47be 4884 cebe 41a6 a5bd
00000110: e5b3 8bbe da26 cebe 7812 c0bd 673c dc3d
00000120: ce41 9a3e 7484 143e bcbe e0be 644c b43d
00000130: d2a2 e4bb 2876 9a3e e135 7a3f 39e9 68bd
00000140: e226 0abf 7f68 07bd 2a53 42be 40fd 313f
00000150: a07b 61bd c0db a7be b426 4f3e 50b8 223f
00000160: d006 e73e b1be c93e 2fbf 91be 257e 8d3e
00000170: a62d b53e f124 3b3e 9a61 1f3d ec59 19be
00000180: c64b 05be 855b 9dbd c7eb 3d3f a558 c7be
00000190: 9a72 9b3d c984 c6be e616 d03e bca1 22be
000001a0: 1b4b 983c 8546 593e 085a 383e 3c13 aa3e
000001b0: 370d 5ebd 5359 de3e 4c0d 423f ec40 233d
000001c0: 0cdf 3abf 10aa a8be dc6f 89ba 7426 7cbe
000001d0: a931 53bd e5d1 0d3d a9fc eabc 1d3c bd3d
000001e0: e15c 8ebe 57a9 9d3e 7d75 a43e ba49 02bf
000001f0: 037b 16bc 8489 133f b46f fe3c b8b3 fabe
00000200: feb7 c0be 3fa8 86bd 2376 023e e361 75be
00000210: 3365 f5be e010 a23e be8f afbe 208a 2fbf
00000220: f9db dd3e 765e 973e cbda 1fbd 28e9 41bf
00000230: 727d 4e3e df3e b33e 5b3c 98bf e880 c13e
00000240: aac5 7ebd 7202 253f c4a4 f6bd 92d3 cd3f
00000250: 39f8 3ebe 0693 1b3d 1dd2 7cbe 16da 1fbe
00000260: c767 3abe 88b7 a73c 6b47 6c3d 0afb ef39
00000270: 8e3d e13d 1b6a 79be ec62 70bf 3720 07bf
00000280: b686 94be 2ece 56bd d7ac 6f3f 9b88 00bd
00000290: 17d4 353d 0404 913e 432b 15bf 33f4 023e
000002a0: b78a 083e aff4 2e3f 832b 0ebe 6077 d43e
000002b0: fbaa 20be 7889 29be bf59 d73e f205 45bf
000002c0: 474d fe3d 5b9e 4cbe 0c8d 64be 0150 f73d
000002d0: ad22 c53d 54ce 183d d179 093e 4c67 f13e
000002e0: 79da 85bf eebd 3dbf e45c 133e a8c8 a5bd
000002f0: 61fa 29bd 76ab 19be 1f47 03be ca54 1f3e
00000300: 64cc ff3d 2bf9 ea3d 460b 1d3f d525 953e
00000310: 59f1 503f 0848 e0be 6a46 103d ba61 613f
00000320: 1d33 0a3f e945 953f d237 9a3e e120 903f
00000330: 579b 70be 2174 f63d 4bea a43f 48fe 37bf
00000340: 9cbe bcbe c2d2 973d e62b ccbd a01a ad3f
00000350: 9b5b b7be c775 d13c 1da9 683e f30b 5f3e
00000360: 6bf2 493f d8bf 4ebd 60f0 d13e 0b75 2f3d
00000370: 2c0a e43d c80b 52bd d23e de3e 3acb 39be
00000380: 0199 bebe 8ddb fcbc 9304 553f d409 03bd
00000390: 5e9b ccbd 6bb5 1bbe f8d3 fe3e dfa6 2d3e
000003a0: 98b8 163f abab c13e abbc 76be 01cb cb3e
000003b0: aabb adbd 4a7a fe3e 31ac 753f fe2c 613f
000003c0: d266 80bc 246c 943e 909d e73e 0482 0d3f
000003d0: d472 683e bc4f e53e 6480 bf3e 9723 07be
000003e0: f6e3 c73f bb98 153f 37d4 cdbc 3370 d43c
000003f0: 51a8 f23d 25a9 043f 11d5 a5be b3eb 5f3e

lstm.bias_hh_l0 f4 [256]
0.48699313 -0.1236518 0.40869 0.3784146 0.45156348 -0.55326915 0.108679354 0.40671188
0.7626838 0.34202096 -0.3545147 1.1401912 -0.2494306 0.14293602 1.3431803 0.06712435
-0.14640978 0.5736682 -0.01469269 1.669942 -0.12411593 -0.18724334 0.3250204 0.5948063
0.20462334 -0.20420928 0.11224555 0.0019917032 0.49580795 0.34446993 0.4504009 0.40177977
-0.6674141 -0.019727003 0.87519926 -0.30404088 0.035585713 -0.11072396 0.49511883 0.3373876
0.48142853 0.40534842 -0.14212291 0.13343172 0.3114017 -0.083105594 0.4075937 1.1955158
-0.049545776 0.13954216 0.3820357 0.31714213 0.6478911 0.19069669 -0.017847288 0.4942797
1.1739442 1.0347468 0.41032586 -0.103638895 -0.19632131 0.43414417 -0.13382883 0.10497684
0.0036118792 -0.17857938 -0.25771004 -0.08672387 -0.30591738 -0.5129219 -0.21431224 0.020588012
0.28419578 0.18598701 -0.29831028 -0.067700595 -0.07205621 0.23597324 0.87715703 0.003221477
-0.5014345 -0.07478451 -0.19530863 0.77429914 0.11437843 -0.17822014 0.3411204 0.5488822
0.40465653 0.4699315 -0.47806832 0.21729395 0.48674735 0.3068623 -0.009372275 0.03356311
-0.008905432 -0.030111175 0.62509054 -0.43106046 0.04531971 -0.28431496 0.39105743 -0.2073514
0.059999097 0.2936298 0.11093725 0.41682371 -0.08309686 0.35316208 0.56116676 -0.13012917
-0.7490573 -0.2255309 -0.07206331 -0.2999856 -0.079430856 -0.07008832 -0.013112078 0.115521334
-0.5053274 0.28821412 0.34987473 -0.51816213 0.031323478 0.57338625 -0.07349691 -0.33608732
-0.29106784 -0.07227908 0.073286735 -0.41868886 -0.29392952 0.21833897 -0.24460654 -0.53025097
0.55143166 0.33045143 -0.13324744 -0.6948247 -0.008571617 0.42049474 -1.1286434 0.41795748
-0.03797391 0.66428435 -0.0030411491 1.5269661 -0.16482408 0.07897754 -0.245668 -0.28710005
-0.30102727 -0.024584185 0.019757431 0.037659165 0.19023612 -0.35909134 -0.999204 -0.39852452
-0.18625839 0.015970536 0.98444456 -0.07271357 0.15135781 0.2261606 -0.43297178 0.22485334
0.081524044 0.67071396 -0.08565933 0.34336445 -0.08969018 -0.28951573 0.24952085 -0.7333724
0.13159461 -0.2134253 -0.37865844 -0.04086363 -0.11358023 -0.03447967 0.018886022 0.4844962
-1.1908424 -0.7187612 0.014002965 0.07719502 -0.09184533 -0.16247079 0.0068324846 0.12444589
0.19258955 0.2345418 0.5749905 0.28613618 0.84461313 -0.38772798 0.052053265 0.8616018
0.6126448 1.0949835 0.21580975 1.0820369 -0.04816948 -0.008246639 1.1157945 -0.6878866
-0.18661195 0.15236446 -0.12759449 1.3854482 -0.40133545 0.077718966 0.20446466 0.23102824
0.81226784 -0.23201586 0.4948497 0.052762713 0.045606893 -0.09696613 0.60040295 0.0096577
-0.2756543 -0.17267597 0.8387871 0.0035496328 -0.041735098 -0.2312222 0.44722188 0.15351124
0.603819 0.42420933 -0.36205634 0.27381524 0.0048002275 0.54181993 0.979744 0.8517287
-0.26393932 0.17487852 0.36268216 0.50442487 0.27039838 0.42637628 0.36161685 -0.1696886
1.6387484 0.7126902 0.11000025 -0.06324611 0.0942186 0.5663298 -0.22531815 0.23739514
00000000: 2a57 f93e 283d fdbd d13f d13e 8fbf c13e
00000010: 5433 e73e 0ca3 0dbf 4893 de3d 8a3c d03e
00000020: 3f3f 433f 5f1d af3e f382 b5be c9f1 913f
00000030: bc6a 7fbe d25d 123e 55ed ab3f 7e78 893d
00000040: 72ec 15be ebdb 123f 9cb9 70bc a9c0 d53f
00000050: 7e30 febd b8bc 3fbe 1369 a63e 3a45 183f
00000060: c888 513e 3d1c 51be ffe0 e53d 3c87 023b
00000070: 8ada fd3e 5d5e b03e f29a e63e 14b6 cd3e
00000080: a7db 2abf 869a a1bc 0f0d 603f 3fab 9bbe
00000090: 53c2 113d 3ec3 e2bd 3780 fd3e 11be ac3e
000000a0: cd7d f63e d489 cf3e ab88 11be 53a2 083e
000000b0: 0b70 9f3e 4433 aabd 1fb0 d03e a906 993f
000000c0: 83f0 4abd 24e4 0e3e 2f9a c33e 7460 a23e
000000d0: 31dc 253f fe45 433e 7a34 92bc 3b12 fd3e
000000e0: ce43 963f 9572 843f 3b16 d23e a140 d4bd
000000f0: 7408 49be 2548 de3e 6d0a 09be 19fe d63d
00000100: 47b5 6c3b 83dd 36be 92f2 83be 499c b1bd
00000110: 34a1 9cbe da4e 03bf ab74 5bbe 31a8 a83c
00000120: 1c82 913e 6173 3e3e 20bc 98be 9ca6 8abd
00000130: 3592 93bd f8a2 713e 5d8d 603f 6a1f 533b
00000140: 035e 00bf 9f28 99bd fcfe 47be 7838 463f
00000150: 3d3f ea3d 577f 36be 55a7 ae3e 8b83 0c3f
00000160: 242f cf3e dd9a f03e 5fc5 f4be 4e82 5e3e
00000170: f336 f93e 0e1d 9d3e 2c8e 19bc 7979 093d
00000180: 17e8 11bc b6ab f6bc ef05 203f f5b3 dcbe
00000190: 29a1 393d bb91 91be ae38 c83e ed53 54be
000001a0: 9dc1 753d a556 963e 1233 e33d eb69 d53e
000001b0: b02e aabd a9d1 b43e a0a8 0f3f 9540 05be
000001c0: 38c2 3fbf 92f1 66be ee95 93bd b697 99be
000001d0: a5ac a2bd 778a 8fbd 0bd4 56bc 7396 ec3d
000001e0: 235d 01bf cd90 933e c822 b33e 46a6 04bf
000001f0: 0c4d 003d 71c9 123f 8c85 96bd a313 acbe
00000200: d806 95be 0e07 94bd 5b17 963d 635e d6be
00000210: ee7d 96be 4094 5f3e 237a 7abe 87be 07bf
00000220: a02a 0d3f ee30 a93e 0472 08be 08e0 31bf
00000230: f86f 0cbc 164b d73e 6377 90bf 86fe d53e
00000240: 888a 1bbd 8a0e 2a3f 044e 47bb a073 c33f
00000250: a5c7 28be fabe a13d 6490 7bbe c7fe 92be
00000260: 3f20 9abe c664 c9bc 56da a13c 7f40 1a3d
00000270: 42cd 423e d2da b7be d5cb 7fbf 680b ccbe
00000280: 85ba 3ebe a4d4 823c 8f04 7c3f daea 94bd
00000290: 8bfd 1a3e a596 673e 7aae ddbe f43f 663e
000002a0: 14f6 a63d e9b3 2b3f 296e afbd 77cd af3e
000002b0: 7caf b7bd 683b 94be 6582 7f3e 4bbe 3bbf
000002c0: bdc0 063e 298c 5abe 85df c1be 9f60 27bd
000002d0: c09c e8bd 8e3a 0dbd dcb6 9a3c e30f f83e
000002e0: 866d 98bf bc00 38bf b16c 653c 6c18 9e3d
000002f0: 6819 bcbd be5e 26be 09e3 df3b 7ddd fe3d
00000300: 3236 453e ba2b 703e 9432 133f 7180 923e
00000310: 9138 583f 4884 c6be ce35 553d f091 5c3f
00000320: 4ad6 1c3f 6b28 8c3f 3bfd 5c3e 2f80 8a3f
00000330: 5c4d 45bd e91c 07bc 5bd2 8e3f 5619 30bf
00000340: 3417 3fbe 6e05 1c3e 21a8 02be 5e56 b13f
00000350: d77b cdbe 1f2b 9f3d 2f5f 513e ab92 6c3e
00000360: c9f0 4f3f 9195 6dbe f15c fd3e b71d 583d
00000370: 4bce 3a3d 2e96 c6bd 02b4 193f 543b 1e3c
00000380: 8f22 8dbe f8d1 30be c0ba 563f f5a0 683b
00000390: 6cf2 2abd 83c5 6cbe 44fa e43e 0d32 1d3e
000003a0: e293 1a3f f731 d93e 735f b9be 8331 8c3e
000003b0: 3a4b 9d3b b6b4 0a3f 81d0 7a3f e40a 5a3f
000003c0: 0e23 87be 5b13 333e 7ab1 b93e fd21 013f
000003d0: a871 8a3e fe4d da3e d825 b93e d9c2 2dbe
000003e0: 82c2 d13f dd72 363f d047 e13d 2d87 81bd
000003f0: aef5 c03d fdfa 103f cdb9 66be b617 733e

lstm.weight_ih_l1 f4 [256, 64]
0.43239805 -0.3650755 0.65839523 0.7301694 0.50490636 -0.35590443 -1.2006868 0.08917814
-0.53503495 -0.032115117 0.8103968 0.1220096 0.16451423 -0.4759096 -0.33634368 0.119548775
-0.17413917 0.14154732 -0.52653795 -0.5776327 0.72334677 0.2559201 0.6369329 0.2694751
0.16863942 0.112471595 -0.38856676 0.06448047 0.39612105 0.64852667 -0.40861398 -0.35281372
0.49960837 0.43424064 0.75955105 -0.17041 0.469442 -0.51317394 0.2613094 -0.335576
0.17532049 0.09127744 0.72730225 -0.15882723 -0.06300875 0.48350853 0.1765028 0.10081761
0.3666205 -0.42676237 0.42906472 0.6071816 -0.61215866 0.95467746 -0.06373603 0.5501428
0.057781614 0.61343616 0.14201367 -0.32035524 0.30978352 0.47284654 -0.5960728 0.9993041
0.9877165 -1.2335074 1.2571206 -0.10066563 0.06827938 0.45504868 -0.8310808 -0.4112769
-0.42873284 0.8465858 0.2494113 -1.6199986 0.45552832 -0.016478624 -0.03150261 0.09005495
-0.56658274 0.29697067 -0.6005608 0.06939719 -0.72809654 0.95339537 -0.66692173 0.44151315
0.04804681 -0.8792936 -0.9104449 -0.26082858 -0.01542868 -0.40469816 0.3115195 -0.5774215
0.45828906 -0.24074225 -0.08722321 -0.7071179 0.05865037 0.26472974 -0.5179772 0.41449636
1.0943543 0.5115018 -0.8390739 0.28628784 -0.38932106 -0.10110716 0.5633699 -0.41502154
0.9726999 -1.1296451 -1.3859341 1.8472481 -0.612716 -0.9263793 1.0210149 0.97436845
-1.0119872 0.55465186 0.25266054 0.018613115 -0.17720686 0.5306242 -0.8917674 -0.022902137
1.0346822 -0.0957582 0.16484822 0.80794096 -0.23215735 0.72720593 -0.086550504 0.044061046
-1.0252379 0.9003134 1.0630434 0.11308822 0.5154107 0.09105336 0.31789407 0.38631234
0.09164407 -0.37756908 0.32240337 0.46669215 0.52397674 -0.047428373 -0.17588243 0.9187673
0.14710334 0.718857 -1.1652534 -0.0707996 0.44633514 0.31254503 -0.20384036 -0.1079693
0.35757852 -0.23511988 -0.77086824 -0.30370235 0.5023946 0.811989 0.21086767 0.01443429
-0.30114388 0.51895183 0.57902664 -1.0216994 -0.23714215 0.87960976 -0.48015818 0.15166005
0.009493837 -0.78439885 -0.05525289 0.73115116 -0.0461347 0.69380295 0.21603987 0.12230421
-0.5128892 1.4699774 -0.93549764 0.22621213 0.13675088 0.3915438 -0.047452677 0.19436209
0.23978783 0.42675838 -0.53241014 -0.8261766 0.16083373 0.4737732 -0.042466626 0.14846583
0.25334746 -0.13215208 -0.46467626 0.17526624 -0.07959666 0.03690029 0.24065305 0.33612135
-0.14166017 -0.10892215 -0.60281456 0.3478553 -0.30842304 -0.28096983 0.23946185 0.6442321
-0.18336083 -0.2247026 0.1965257 -0.060459692 0.17110948 0.01660508 -0.025846528 0.34817863
-0.07019581 -0.85015166 0.027134046 0.23877989 -0.16457126 -0.2728181 -0.18537647 0.3009083
0.3391507 -0.4999773 0.8376752 0.418091 -0.48266083 -0.4774911 0.7144376 0.25080502
-0.13936746 0.11418222 0.108890966 0.28955805 -0.08891043 0.3434815 -0.2409978 -0.14800456
0.19568932 0.47096935 0.78637886 0.1707525 -0.19791019 0.094427034 -0.23787346 0.39216822
00000000: 4763 dd3e 2deb babe 978c 283f 62ec 3a3f
00000010: 8b41 013f 1b39 b6be 1bb0 99bf 07a3 b63d
00000020: 0df8 08bf 248b 03bd 2a76 4f3f 2be0 f93d
00000030: 6b76 283e 6caa f3be 3d35 acbe fdd5 f43d
00000040: 8a51 32be c8f1 103e 31cb 06bf bddf 13bf
00000050: 412d 393f f607 833e 090e 233f a4f8 893e
00000060: d0af 2c3e 8257 e63d 39f2 c6be 560e 843d
00000070: 61d0 ca3e d805 263f da35 d1be 00a4 b4be
00000080: abcc ff3e ca54 de3e f071 423f f67f 2ebe
00000090: b45a f03e 5e5f 03bf 58ca 853e 9ed0 abbe
000000a0: 3787 333e abef ba3d 7b30 3a3f 9ba3 22be
000000b0: bb0a 81bd 6e8e f73e 26bd 343e 7779 ce3d
000000c0: afb5 bb3e 9980 dabe 5fae db3e 4170 1b3f
000000d0: 6eb6 1cbf be65 743f 0988 82bd 29d6 0c3f
000000e0: 6aac 6c3d 270a 1d3f 086c 113e 9a05 a4be
000000f0: f29b 9e3e f118 f23e 3a98 18bf 65d2 7f3f
00000100: fdda 7c3f 92e3 9dbf 54e9 a03f c829 cebd
00000110: 0fd6 8b3d 24fc e83e b6c1 54bf e392 d2be
00000120: df82 dbbe d9b9 583f ad65 7f3e 1d5c cfbf
00000130: 023b e93e 2efe 86bc e108 01bd bb6e b83d
00000140: 910b 11bf 8a0c 983e 5abe 19bf 1d20 8e3d
00000150: 8964 3abf b811 743f 62bb 2abf 030e e23e
00000160: bbcc 443d 6319 61bf eb12 69bf 538b 85be
00000170: 93c8 7cbc 9934 cfbe 7c7f 9f3e e5d1 13bf
00000180: dda4 ea3e 2385 76be 15a2 b2bd ae05 35bf
00000190: 5f3b 703d a88a 873e 279a 04bf de38 d43e
000001a0: cd13 8c3f c8f1 023f 8ccd 56bf 5294 923e
000001b0: 1755 c7be 4511 cfbd 0339 103f b47d d4be
000001c0: dc02 793f 3698 90bf 4a66 b1bf a072 ec3f
000001d0: f5da 1cbf 3227 6dbf 9eb0 823f 3670 793f
000001e0: cc88 81bf aafd 0d3f b95c 813e 887a 983c
000001f0: b775 35be fdd6 073f de4a 64bf 439d bbbc
00000200: 7770 843f e01c c4bd f9cd 283e 38d5 4e3f
00000210: a8ba 6dbe 2b2a 3a3f 6441 b1bd 5b79 343d
00000220: ff3a 83bf f07a 663f ce11 883f cc9a e73d
00000230: f5f1 033f 2f7a ba3d 03c3 a23e bbca c53e
00000240: e3af bb3d bc50 c1be 0e12 a53e 46f2 ee3e
00000250: 5723 063f 4144 42bd 861a 34be 5534 6b3f
00000260: 42a2 163e 0307 383f 0627 95bf 61ff 90bd
00000270: 0a86 e43e e705 a03e 87bb 50be 021f ddbd
00000280: 8814 b73e 44c3 70be 9f57 45bf e07e 9bbe
00000290: ef9c 003f 83de 4f3f b2ed 573e cd7d 6c3c
000002a0: 882f 9abe 07da 043f 173b 143f 0cc7 82bf
000002b0: 64d5 72be 1b2e 613f 4bd7 f5be c64c 1b3e
000002c0: 0a8c 1b3c 5dce 48bf db50 62bd b92c 3b3f
000002d0: bdf7 3cbd 129d 313f 8e39 5d3e a17a fa3d
000002e0: b54c 03bf 3828 bc3f c67c 6fbf 27a4 673e
000002f0: 6c08 0c3e 6e78 c83e bd5d 42bd db06 473e
00000300: f18a 753e 1380 da3e 084c 08bf 4f80 53bf
00000310: 99b1 243e 6792 f23e 7cf1 2dbd 6d07 183e
00000320: c2b6 813e e052 07be 0cea edbe fe78 333e
00000330: 9303 a3bd c224 173d c16d 763e 1918 ac3e
00000340: 5d0f 11be 9412 dfbd 0e52 1abf 171a b23e
00000350: a0e9 9dbe 47db 8fbe 7d35 753e 65ec 243f
00000360: f1c2 3bbe 7018 66be 083e 493e 95a4 77bd
00000370: 5337 2f3e 6007 883c 19bc d3bc 7844 b23e
00000380: d2c2 8fbd 8aa3 59bf 3848 de3c b782 743e
00000390: 5e85 28be d0ae 8bbe 54d3 3dbe a710 9a3e
000003a0: 29a5 ad3e 06fd ffbe e271 563f 0610 d63e
000003b0: 521f f7be b779 f4be 62e5 363f 8469 803e
000003c0: 58b6 0ebe 5ed8 e93d 3a02 df3d f440 943e
000003d0: ac16 b6bd cfdc af3e 21c8 76be 828e 17be
000003e0: c862 483e e522 f13e 2050 493f bed9 2e3e
000003f0: f8a8 4abe f662 c13d 1a95 73be 46ca c83e

lstm.weight_hh_l1 f4 [256, 64]
-1.3600285 -0.7051015 0.030323658 -0.7278951 0.10199139 -1.0384741 -0.3862411 -0.7253773
0.51319826 0.4222772 0.13303721 0.20765431 0.071822666 -0.35167378 -0.68569595 0.016175471
-0.429397 -0.62930393 0.71400183 0.5540989 1.2079641 0.051442303 -1.9056288 -0.121939115
-0.5303856 0.2866066 0.3844222 0.2017507 -0.21466538 -0.23101833 -0.26761386 -0.1645606
0.41202757 0.08158316 -2.1944723 -0.06465044 -0.5271143 -0.89993894 -0.9697259 -0.45891708
0.5811274 0.060724307 0.46353114 0.22365706 -0.3488004 -0.11684243 0.2754574 -0.3061965
-0.36007047 0.98401725 0.4496623 -1.6539755 -0.6829223 -0.1689891 -0.13509603 -0.5579905
0.5062196 1.1465737 -0.12744287 0.1475571 1.2101622 -1.0766386 -1.0738704 -0.5572968
-0.20594604 0.96564764 -0.27233082 0.15275407 0.5072231 -0.18909352 0.14871748 0.38013884
0.63484305 -0.694565 0.26131147 -1.4422629 -0.2809239 -0.7592375 1.0010843 -0.0070088906
-0.23291934 -0.15188022 0.16508609 0.092412785 -0.17447317 0.21712376 0.2838817 0.062025607
-0.2635673 -0.3668517 -0.16295885 0.07514079 0.15153673 0.18067013 -0.32474914 -0.15897688
0.85555625 0.00015134212 -0.9350772 -0.022670379 -0.15325205 0.19609214 -0.5581085 0.41252387
-0.108509116 -0.110172205 -0.19961491 -0.4110721 -0.039131183 -0.07217999 -0.26019236 0.45968366
0.5746517 0.5855211 -0.24341503 0.5640417 -0.078451924 1.2532898 0.19867149 -0.27221873
0.82268673 0.17948674 -0.25365964 -0.050210293 0.4545415 -0.025050739 0.3203344 0.66612166
-1.25551 -0.99387604 -2.3900979 -1.081001 -1.5384724 0.81784743 0.25662994 -0.79571205
1.983857 -1.0979002 0.15313856 -0.97308654 0.65460104 0.37799475 -0.17372909 0.642178
-0.75881517 -1.2894952 1.1283828 2.0304449 1.785211 0.85173696 -0.13576916 -0.85330796
-1.969236 -1.0710362 2.3001916 0.26339632 1.3011259 -0.39672327 1.4635828 -1.8076634
0.03375208 -0.26476383 -0.25351417 0.21804155 -1.5942231 -0.60751957 -0.52449 -1.8230884
0.16397317 0.22455987 0.79681623 -0.21940665 -0.52635366 0.54951894 -1.4985611 -0.41740477
-0.98132974 0.88816506 -2.0779905 -0.30629265 -0.52279526 3.1080954 0.62202275 0.4256661
0.9137668 -0.38440847 -0.4157574 -0.14238533 0.45072994 -0.8566947 -1.5667937 -0.18823525
0.15358926 0.8572035 0.045867786 -0.22760767 0.8716623 -1.059654 -0.755685 -0.42842284
-0.33682257 -0.28315574 1.4334857 -0.11798996 -0.13753471 -1.085083 0.44093066 -0.13809903
0.6531094 -0.60912055 -0.17100784 0.64951074 0.26135927 -0.004716677 -0.2282254 0.2709585
0.50422597 -0.09543995 0.17764981 0.09428263 -0.01391188 -0.0101991575 -0.4088487 -0.08954402
0.36470628 -0.6003383 0.36803874 0.14423077 -0.14243515 -0.4582247 -0.7249796 0.10090786
0.6726377 0.22249286 0.13103378 -0.08911011 0.5373 -0.16771418 -0.026043542 0.17242321
-0.9754161 0.29446936 0.0022817284 -0.08553258 0.1614732 0.054376863 -0.68662494 -0.6114237
0.4791019 1.0745953 -0.46670598 0.37778342 -0.0072355843 0.26539034 -0.5625805 -0.56619084
00000000: 6a15 aebf 8881 34bf 5269 f83c 5557 3abf
00000010: dde0 d03d b8ec 84bf 65c1 c5be 54b2 39bf
00000020: f660 033f b834 d83e e83a 083e 55a3 543e
00000030: c317 933d 960e b4be c589 2fbf 6c82 843c
00000040: ecd9 dbbe 101a 21bf d3c8 363f 6dd9 0d3f
00000050: 919e 9a3f 2ab5 523d a5eb f3bf 37bb f9bd
00000060: 5ac7 07bf 1abe 923e fdd2 c43e bc97 4e3e
00000070: 3ed1 5bbe 1290 6cbe af04 89be 9382 28be
00000080: 47f5 d23e 1215 a73d 3c72 0cc0 7367 84bd
00000090: f6f0 06bf 6662 66bf f53f 78bf 2ef7 eabe
000000a0: c4c4 143f 0dba 783d f453 ed3e 5b06 653e
000000b0: f795 b2be 154b efbd c108 8d3e cac5 9cbe
000000c0: 285b b8be 8ee8 7b3f 233a e63e 78b5 d3bf
000000d0: ffd3 2ebf 7b0b 2dbe 9d56 0abe 77d8 0ebf
000000e0: 9c97 013f edc2 923f 6280 02be 3519 173e
000000f0: 98e6 9a3f 4bcf 89bf 9674 89bf 01ab 0ebf
00000100: 85e3 52be af34 773f f26e 8bbe 906b 1c3e
00000110: 60d9 013f bba1 41be 6549 183e 8fa1 c23e
00000120: 1385 223f 03cf 31bf 9eca 853e 129c b8bf
00000130: 42d5 8fbe 645d 42bf 8823 803f d6aa e5bb
00000140: 6882 6ebe 7d86 1bbe 540c 293e ea42 bd3d
00000150: 18a9 32be b155 5e3e f158 913e 900e 7e3d
00000160: 4bf2 86be fcd3 bbbe afde 26be 6ae3 993d
00000170: 722c 1b3e 9701 393e 8545 a6be d6ca 22be
00000180: bc05 5b3f 97b1 1e39 3861 6fbf 3bb7 b9bc
00000190: 1bee 1cbe 61cc 483e 33e0 0ebf 5436 d33e
000001a0: 073a debd f7a1 e1bd da67 4cbe 0b78 d2be
000001b0: 0548 20bd 1ad3 93bd ef37 85be a85b eb3e
000001c0: 601c 133f b6e4 153f ca41 79be 0965 103f
000001d0: 67ab a0bd cd6b a03f 8a70 4b3e 4160 8bbe
000001e0: 999b 523f 5fcb 373e addf 81be 4fa9 4dbd
000001f0: aab9 e83e 3537 cdbc df02 a43e f386 2a3f
00000200: 8db4 a0bf a96e 7ebf 5df7 18c0 3e5e 8abf
00000210: aaec c4bf 735e 513f 0065 833e c9b3 4bbf
00000220: 07ef fd3f fe87 8cbf 5bd0 1c3e 331c 79bf
00000230: ef93 273f 8788 c13e 0ae6 31be c765 243f
00000240: b641 42bf 2e0e a5bf d96e 903f cff2 0140
00000250: cb81 e43f 6f0b 5a3f 1207 0bbe 6472 5abf
00000260: ed0f fcbf b717 89bf 5736 1340 e2db 863e
00000270: 4b8b a63f 501f cbbe ae56 bb3f 8461 e7bf
00000280: 9f3f 0a3d 208f 87be 9ccc 81be 4946 5f3e
00000290: 810f ccbf 6786 1bbf fa44 06bf f65a e9bf
000002a0: 95e8 273e 06f3 653e 26fc 4b3f 23ac 60be
000002b0: 1dbf 06bf 46ad 0c3f dad0 bfbf 14b6 d5be
000002c0: 6d38 7bbf c95e 633f ccfd 04c0 64d2 9cbe
000002d0: e9d5 05bf 09eb 4640 e23c 1f3f e8f0 d93e
000002e0: 9fec 693f 30d1 c4be 27de d4be 76cd 11be
000002f0: 13c6 e63e 5850 5bbf b28c c8bf bec0 40be
00000300: 8146 1d3e b071 5b3f dcdf 3b3d fc11 69be
00000310: 4325 5f3f bea2 87bf 9274 41bf 3d5a dbbe
00000320: 0274 acbe caf9 90be 767c b73f b8a4 f1bd
00000330: e6d5 0cbe 00e4 8abf aac1 e13e d569 0dbe
00000340: 2d32 273f 53ef 1bbf ae1c 2fbe 5646 263f
00000350: e2d0 853e 5b8e 9abb ebb3 69be 13bb 8a3e
00000360: f414 013f 0576 c3bd d5e9 353e 4017 c13d
00000370: a7ee 63bc 5e1a 27bc 9e54 d1be db62 b7bd
00000380: c8ba ba3e c5af 19bf 936f bc3e 3bb1 133e
00000390: 85da 11be 6e9c eabe 4398 39bf c8a8 ce3d
000003a0: fc31 2c3f 2bd5 633e b82d 063e 5d7f b6bd
000003b0: 7e8c 093f 44bd 2bbe 4459 d5bc b68f 303e
000003c0: dfb4 79bf b0c4 963e 0d89 153b b52b afbd
000003d0: 3b59 253e 46ba 5e3d a7c6 2fbf 4386 1cbf
000003e0: d84c f53e 578c 893f 16f4 eebe d46c c13e
000003f0: 7b18 edbb 3ee1 873e 4705 10bf e2f1 10bf

lstm.bias_ih_l1 f4 [256]
0.13535789 0.21595731 -0.83816695 0.2741888 -0.40235633 0.7925051 -0.24027355 -0.08286552
0.14779153 0.19196571 0.36837986 0.11712712 0.57952213 -0.45980224 -0.5180073 1.108287
-0.78737694 0.25127456 -0.49527395 -0.06498637 -0.48323599 0.5279948 -0.888656 0.52220196
-0.22839431 -0.25608256 0.35053945 0.3264254 -0.27397853 0.60999614 0.25563863 -0.5255548
-0.8510312 0.3953528 -0.85930467 -0.10666736 -0.35309967 -0.58187723 0.32032666 0.32270122
-0.19049034 1.0096338 0.7655667 0.008611874 0.4648009 1.0205258 -0.6191755 0.48727232
-0.7712549 -0.07599128 -0.044633932 -0.22449552 -1.2625517 -0.76681244 0.81661445 -0.1384491
0.7166972 -0.15311585 -0.14883801 0.5045314 -0.3853297 -0.4694095 -0.094732344 -1.0290155
-0.42240295 -0.748554 0.37837067 0.2250515 -0.45822662 0.49645257 0.7664187 0.22402614
-0.6066443 0.22492285 0.5691246 -0.28878638 0.62032694 -0.29885775 0.16363582 0.9614641
-0.39234632 -0.30426827 -0.25857207 -0.6258088 -0.29168865 0.40635332 0.67783386 0.51238704
-0.15979813 0.5003966 0.13246964 0.31638223 0.03057637 0.7460201 0.21519691 -0.28022635
-0.36783025 0.45257968 -0.3680094 0.7567156 -0.48697215 -0.49663487 0.35081738 0.18188734
0.74903965 0.3824853 0.2901348 0.33457217 0.22254506 0.66043305 -0.4524919 0.08602337
-0.5231854 0.3989702 -0.05249667 0.39618242 -0.0808848 -0.3257546 0.59150964 0.05326418
0.49464867 0.3864932 0.12934983 0.39568081 0.3738651 -0.15424715 0.24342127 0.003473722
-0.61099595 -0.36769164 0.056782164 -0.7772807 -0.6447251 -0.07741212 -0.5792877 -0.8448867
-0.23707339 0.3090821 0.19422653 0.2517811 1.0672283 0.21623965 -0.1420109 0.83571684
0.60472196 -0.8434655 -0.3179342 0.7876005 0.1502861 1.2844613 0.63297266 -0.6582519
-0.9611164 0.3405596 0.7552557 0.8701316 -0.3952278 -1.0161412 0.7058714 0.20016344
0.05855542 -0.76811093 0.45346758 -0.71579546 -0.5712568 0.16432735 -0.94073075 -0.14275064
-0.98286796 1.4938747 0.9976922 -1.5940493 -0.7679724 1.0480211 -0.7290133 -0.87501407
-0.046282273 -0.4568636 0.43416432 -0.19837363 0.014586453 -0.4150758 -0.79925203 -0.9049394
-0.7980553 -0.51430833 -0.7739241 0.8777144 -0.62750804 -0.27424285 -0.74575895 -0.100691
-1.0152476 -0.36175162 -0.75182706 0.29831064 -0.46400854 0.2777861 -0.10355128 -0.012927367
-0.43986785 0.16445126 0.2961472 -0.40688682 0.7572793 -0.32964957 -0.5962267 0.87676376
-0.63464344 -0.22789904 -0.60282934 -0.52180076 -1.2603225 0.45512947 -1.2072109 -0.10826259
-0.5499021 -0.3031868 -0.10215575 0.43375784 -0.7238325 1.0213792 -0.015128988 -0.8566283
-0.6176197 0.52091914 -1.4146249 -0.5425403 -0.1384351 -1.1687157 -0.12991 -0.12114671
-0.54787517 0.10723724 0.007830238 0.0059362 -0.06370859 0.583639 -0.55504584 0.5203274
-1.1498172 -0.4620885 -0.6629768 -0.053384826 -1.1438551 -0.93810445 0.41392475 -0.50718045
0.018018473 -0.08106591 -0.0761615 0.53215843 -0.61909866 -1.217588 -0.11865269 -1.3474226
00000000: 429b 0a3e ea23 5d3e 1c92 56bf 7962 8c3e
00000010: a601 cebe 9de1 4a3f 450a 76be 66b5 a9bd
00000020: aa56 173e a992 443e 499c bc3e 58e0 ef3d
00000030: 905b 143f 336b ebbe 209c 04bf 59dc 8d3f
00000040: 8991 49bf 0fa7 803e 8c94 fdbe 9317 85bd
00000050: b56a f7be ab2a 073f f67e 63bf 07af 053f
00000060: 33e0 69be 411d 83be e879 b33e 3b21 a73e
00000070: ea46 8cbe b528 1c3f 11e3 823e c28a 06bf
00000080: 2edd 59bf af6b ca3e 64fb 5bbf 6b74 dabd
00000090: 7bc9 b4be e8f5 14bf db01 a43e 1839 a53e
000000a0: e60f 43be ae3b 813f 2efc 433f d118 0d3c
000000b0: 62fa ed3e 97a0 823f 4982 1ebf c27b f93e
000000c0: f670 45bf 51a1 9bbd 12d2 36bd 27e2 65be
000000d0: 4b9b a1bf d24d 44bf a50d 513f 9ac5 0dbe
000000e0: 7879 373f 67ca 1cbe fe68 18be f828 013f
000000f0: ef49 c5be 7156 f0be 0803 c2bd c8b6 83bf
00000100: 3345 d8be 3ca1 3fbf cdb9 c13e e773 663e
00000110: ae9c eabe 082f fe3e 0434 443f 1c67 653e
00000120: 0a4d 1bbf 2d52 663e 26b2 113f cfdb 93be
00000130: bfcd 1e3f e203 99be 2690 273e 8322 763f
00000140: 9ee1 c8be 0dc9 9bbe 8f63 84be 0135 20bf
00000150: 3758 95be 8b0d d03e 8586 2d3f cc2b 033f
00000160: 1fa2 23be fe19 003f 1fa6 073e dafc a13e
00000170: 4c7b fa3c 2cfb 3e3f 945c 5c3e d479 8fbe
00000180: 3f54 bcbe 86b8 e73e ba6b bcbe 1db8 413f
00000190: 6a54 f9be ed46 febe 569e b33e ad40 3a3e
000001a0: 10c1 3f3f 1dd5 c33e 8c8c 943e 0b4d ab3e
000001b0: dae2 633e 2412 293f 05ad e7be 052d b03d
000001c0: 7aef 05bf d245 cc3e c006 57bd 6cd8 ca3e
000001d0: eea6 a5bd 4fc9 a6be 2d6d 173f 8a2b 5a3d
000001e0: 9742 fd3e 70e2 c53e 4874 043e ad96 ca3e
000001f0: 3f6b bf3e f7f2 1dbe 6d43 793e 62a7 633b
00000200: 3b6a 1cbf 1442 bcbe 6a94 683d defb 46bf
00000210: b40c 25bf 3f8a 9ebd 334c 14bf 7f4a 58bf
00000220: 5ec3 72be 0240 9e3e 52e3 463e 74e9 803e
00000230: f09a 883f ed6d 5d3e 4e6b 11be 8af1 553f
00000240: 0fcf 1a3f 5bed 57bf 45c8 a2be 30a0 493f
00000250: 99e4 193e 3a69 a43f 7f0a 223f 3283 28bf
00000260: b90b 76bf d45d ae3e 7058 413f f2c0 5e3f
00000270: 4c5b cabe ea10 82bf fdb3 343f a5f7 4c3e
00000280: cfd7 6f3d eba2 44bf e72c e83e 5f3e 37bf
00000290: e33d 12bf 6e45 283e bbd3 70bf 392d 12be
000002a0: 3c9d 7bbf 4937 bf3f c268 7f3f cf09 ccbf
000002b0: d799 44bf 8e25 863f 9ea0 3abf ec00 60bf
000002c0: 7b92 3dbd 07ea e9be c94a de3e 7522 4bbe
000002d0: 05fc 6e3c d184 d4be c89b 4cbf 1caa 67bf
000002e0: 5a4d 4cbf b6a9 03bf e41f 46bf e4b1 603f
000002f0: 5ea4 20bf 8f69 8cbe 0fea 3ebf 1537 cebd
00000300: a2f3 81bf 8237 b9be bd77 40bf 2cbc 983e
00000310: 8792 edbe fb39 8e3e b212 d4bd 4fcd 53bc
00000320: 5c36 e1be e965 283e 9ba0 973e 7853 d0be
00000330: 0edd 413f d4c7 a8be 50a2 18bf 9773 603f
00000340: fe77 22bf 5e5e 69be 0653 1abf bc94 05bf
00000350: 3f52 a1bf bb06 e93e e385 9abf c7b8 ddbd
00000360: 62c6 0cbf 4d3b 9bbe 0937 d1bd 8215 de3e
00000370: 164d 39bf 8ebc 823f 93df 77bc fe4b 5bbf
00000380: 531c 1ebf f55a 053f 6e12 b5bf ece3 0abf
00000390: eec1 0dbe 7a98 95bf 2107 05be c41b f8bd
000003a0: 8c41 0cbf 339f db3d 664a 003c 7484 c23b
000003b0: a679 82bd 5e69 153f 7c17 0ebf 2d34 053f
000003c0: 362d 93bf dd96 ecbe d9b8 29bf 0caa 5abd
000003d0: d869 92bf 9d27 70bf f2ed d33e 94d6 01bf
000003e0: 7a9b 933c e205 a6bd 8ffa 9bbd 893b 083f
000003f0: 407d 1ebf ecd9 9bbf 2e00 f3bd 5878 acbf

lstm.bias_hh_l1 f4 [256]
-0.05332519 0.12989074 -0.9183223 0.36415657 -0.4900695 0.6068512 -0.28881088 -0.110314965
0.12521821 0.14233014 0.48978102 0.16287182 0.6760876 -0.58679426 -0.4697304 1.1049213
-0.94496626 0.07493385 -0.3256687 -0.14591542 -0.49058113 0.37832376 -0.94078434 0.3000806
-0.35384983 -0.11107449 0.4670575 0.3431147 -0.40537056 0.539879 0.23384598 -0.29841453
-0.839309 0.21713425 -0.82026756 0.07266777 -0.32004294 -0.7372608 0.2760432 0.382594
-0.1826559 0.8442958 0.81357634 0.16899183 0.35166612 1.0499835 -0.62734914 0.5024826
-0.7912513 -0.21704136 0.053059928 -0.098646 -1.2369276 -0.5651139 0.79340297 0.009019166
0.6691603 -0.37330082 -0.09574062 0.35885856 -0.24829711 -0.37914392 -0.14398408 -1.1057141
-0.39018792 -0.66840017 0.26986745 0.05873985 -0.42014223 0.6403643 0.8663826 0.387604
-0.68959415 0.1786888 0.52036095 -0.41991594 0.787055 -0.30588326 0.17153378 0.993738
-0.55200243 -0.21873653 -0.2702048 -0.6293101 -0.26505026 0.55093396 0.58202034 0.4181564
-0.12707739 0.48198855 0.091942094 0.24105114 -0.1343875 0.81892145 0.16307735 -0.1892705
-0.24403504 0.43600285 -0.315335 0.7281309 -0.2966399 -0.5894629 0.2820419 0.0030244144
0.52063245 0.2873417 0.29188165 0.49405304 0.3581312 0.54081213 -0.41855788 0.18207715
-0.5562363 0.5478515 0.05910397 0.48243147 -0.22117932 -0.36861506 0.5885322 -0.009930254
0.4107344 0.58644277 0.042364478 0.37384444 0.44175604 -0.27419198 0.31027693 -0.063950494
-0.53102213 -0.37533277 0.0056461403 -0.8970011 -0.433982 -0.11943844 -0.723638 -0.852282
-0.3683436 0.4612852 0.2631726 0.16171655 0.95788395 0.06262294 -0.12053572 0.97508603
0.55830723 -0.87469834 -0.23374577 0.881877 0.14293583 1.4535733 0.42345604 -0.7748282
-0.89492935 0.52600485 0.60777247 0.83562994 -0.48879856 -0.8103579 0.54505426 0.3624188
0.03981202 -0.6143898 0.3343124 -0.671086 -0.60455173 0.09483939 -1.0053674 -0.06387911
-1.0030726 1.5787681 0.88405454 -1.4593188 -0.7914898 1.0489721 -0.7215792 -0.8880988
-0.017612703 -0.4937828 0.4992322 -0.25163627 0.14730586 -0.3035941 -0.789469 -0.80183756
-0.81859374 -0.44190675 -0.6668458 0.9032239 -0.62779987 -0.13868085 -0.8365959 -0.12214236
-0.9865144 -0.18402113 -0.76130575 0.27124992 -0.610612 0.259112 -0.09308672 0.11861822
-0.58607846 0.10558784 0.3982025 -0.49601728 0.7862835 -0.40274143 -0.62271035 0.97481716
-0.6029727 -0.26717013 -0.43218684 -0.31392002 -1.2082741 0.49417773 -1.3076985 -0.16517873
-0.70948744 -0.39526364 0.05826197 0.55164737 -0.58027554 1.0187819 -0.055184625 -0.8529991
-0.5756847 0.56012195 -1.3870068 -0.7385762 -0.11497913 -1.1805851 -0.1386323 -0.09909759
-0.5881497 0.22570758 0.11023838 -0.04389753 -0.10326332 0.41873178 -0.64208984 0.52124196
-1.1924965 -0.70107204 -0.47773758 -0.025434004 -1.1505586 -0.95928574 0.4354811 -0.30225837
0.12680101 -0.19581255 -0.213692 0.62444466 -0.54329133 -1.2124252 -0.099070124 -1.5057425
00000000: 846b 5abd 1402 053e 2c17 6bbf bb72 ba3e
00000010: 64ea fabe 9a5a 1b3f 05df 93be d0ec e1bd
00000020: 3439 003e febe 113e 94c4 fa3e dfc7 263e
00000030: 1414 2d3f 2638 16bf 8180 f0be 106e 8d3f
00000040: 4fe9 71bf eb76 993d 0cbe a6be da6a 15be
00000050: 732d fbbe a7b3 c13e 3ed7 70bf 2aa4 993e
00000060: ce2b b5be 067b e3bd 2922 ef3e bbac af3e
00000070: bb8c cfbe 8335 0a3f 5275 6f3e cac9 98be
00000080: f4dc 56bf 7158 5e3e 0efd 51bf d7d2 943d
00000090: abdc a3be 20bd 3cbf 8955 8d3e 5ce3 c33e
000000a0: 260a 3bbe c523 583f 8a46 503f 320c 2d3e
000000b0: 950d b43e dc65 863f f499 20bf b3a2 003f
000000c0: 728f 4abf 1740 5ebe 5e55 593d ea06 cabd
000000d0: a553 9ebf 4eab 10bf 751c 4b3f 20c5 133c
000000e0: 174e 2b3f 4921 bfbe a813 c4bd 4fbc b73e
000000f0: 9941 7ebe 271f c2be 9070 13be 0a88 8dbf
00000100: b6c6 c7be 461c 2bbf 112c 8a3e 3299 703d
00000110: e21c d7be eaee 233f 40cb 5d3f 0874 c63e
00000120: 3e89 30bf 32fa 363e 6036 053f 39ff d6be
00000130: 707c 493f bb9c 9cbe 8da6 2f3e 9d65 7e3f
00000140: 0850 0dbf 78fc 5fbe 4958 8abe 771a 21bf
00000150: abb4 87be 020a 0d3f 49ff 143f 9818 d63e
00000160: 9320 02be 34c7 f63e 234c bc3d 1cd6 763e
00000170: e09c 09be d6a4 513f c0fd 263e 20d0 41be
00000180: 52e4 79be c43b df3e 9773 a1be c966 3a3f
00000190: 2fe1 97be 0ae7 16bf cc67 903e 4135 463b
000001a0: 2b48 053f 741e 933e 8371 953e 85f4 fc3e
000001b0: f95c b73e aa72 0a3f 384d d6be 6f72 3a3e
000001c0: 8165 0ebf ff3f 0c3f 0117 723d 4201 f73e
000001d0: d57c 62be 1dbb bcbe 0caa 163f 81b2 22bc
000001e0: c74b d23e 1d21 163f 6086 2d3d 8a68 bf3e
000001f0: d92d e23e e462 8cbe 9edc 9e3e 7af8 82bd
00000200: 11f1 07bf 9e2b c0be 4203 b93b dda1 65bf
00000210: e432 debe 249c f4bd 5740 39bf 272f 5abf
00000220: 8897 bcbe 932d ec3e 8fbe 863e 0699 253e
00000230: e237 753f 7540 803d 6edb f6bd 3d9f 793f
00000240: 39ed 0e3f 3bec 5fbf 0d5b 6fbe b1c2 613f
00000250: c55d 123e b10e ba3f 3bcf d83e 245b 46bf
00000260: 171a 65bf 41a8 063f fa96 1b3f d8eb 553f
00000270: ce43 fabe 9e73 4fbf ad88 0b3f f58e b93e
00000280: ee11 233d a648 1dbf ff2a ab3e 4bcc 2bbf
00000290: e7c3 1abf 273b c23d e1af 80bf 0dd3 82bd
000002a0: af64 80bf 1315 ca3f 6651 623f f5ca babf
000002b0: 139f 4abf b844 863f 6ab9 38bf 715a 63bf
000002c0: 8448 90bc 19d1 fcbe 5d9b ff3e 78d6 80be
000002d0: 59d7 163e b070 9bbe a41a 4abf 3a45 4dbf
000002e0: 5c8f 51bf 9a41 e2be 68b6 2abf ae39 673f
000002f0: 7eb7 20bf 5a02 0ebe 262b 56bf c625 fabd
00000300: 358c 7cbf 0970 3cbe efe4 42bf 45e1 8a3e
00000310: 1151 1cbf 54aa 843e 40a4 bebd 1cee f23d
00000320: 3d09 16bf 703e d83d 33e1 cb3e faf5 fdbe
00000330: e049 493f 2034 cebe f269 1fbf 9e8d 793f
00000340: 6b5c 1abf 86ca 88be 9847 ddbe 20ba a0be
00000350: baa8 9abf dd04 fd3e aa62 a7bf 9d24 29be
00000360: f8a0 35bf ff5f cabe 1aa4 6e3d c338 0d3f
00000370: f08c 14bf 7267 823f 4609 62bd 265e 5abf
00000380: 1360 13bf 2764 0f3f 7089 b1bf 5413 3dbf
00000390: 2e7a ebbd 6a1d 97bf a0f5 0dbe adf3 cabd
000003a0: fb90 16bf e31f 673e a9c4 e13d e5cd 33bd
000003b0: b87b d3bd 0364 d63e 0060 24bf 1d70 053f
000003c0: baa3 98bf 7579 33bf 059a f4be f95a d0bc
000003d0: 8145 93bf c093 75bf 61f7 de3e 9cc1 9abe
000003e0: 20d8 013e 1683 48be 13d2 5abe 9bdb 1f3f
000003f0: 2415 0bbf c030 9bbf 47e5 cabd 2cbc c0bf
